benchmarking/policy_REINFORCE_with_baseline.pt (torch, 39513 bytes, 6 tensors)

fc1.weight f4 [128, 4]
000000 8a 52 a3 3c 4b f0 13 3e c3 64 72 3e 63 69 e4 3e
       0.019936819 0.14447133 0.2367125 0.44611654
000010 ec d9 4d be 2a 52 95 3e 39 63 d3 3e 0f 83 31 bd
       -0.20102662 0.2916425 0.41286638 -0.043337878
000020 b9 df 92 be ac 4c bb 3c 35 2f cf bd 6f e6 fc 3e
       -0.28686312 0.022863708 -0.10116426 0.49394557
000030 d2 17 dd 3e a0 4c ec be bb e9 a8 be 68 e7 88 3e
       0.43182236 -0.4615221 -0.32990822 0.2673905
000040 c8 a8 87 3d 2f 5a 71 3e d2 bc df 3e b0 b0 29 be
       0.06623989 0.23569559 0.43698746 -0.16571307
000050 6c a4 27 3e 3b c4 41 3d 42 84 94 3e cc 4a 47 be
       0.16371316 0.04730628 0.29007155 -0.19462126
000060 d3 32 7b 3e 5e 53 f4 3e 4f f1 1b 3d cb 41 45 be
       0.24531107 0.47719854 0.038071927 -0.1926338
000070 df b6 8a be 26 41 6d 3e 5a 68 c4 3e 55 00 85 bc
       -0.27092645 0.23169383 0.38360864 -0.01623551
000080 fc 53 e5 be 3c cb 87 3e 58 55 00 3e d6 cf 4e bb
       -0.44790637 0.26522243 0.12532556 -0.0031556985
000090 8d 6b 52 3e 24 8c 3e be 1a f2 f4 3e 5d 54 f3 be
       0.2054884 -0.18608147 0.4784096 -0.47525302
0000a0 b5 c8 b7 bd 12 a9 ac bc 8f 69 ef be fc 14 da 3e
       -0.08973829 -0.021076713 -0.46760222 0.42594135
0000b0 0b 60 85 3e 79 52 a2 3e 6d a8 39 be 9a 15 0a 3e
       0.26049837 0.31703547 -0.18130656 0.13484803
0000c0 21 6d 57 3e 07 49 94 3e e9 37 ed be 6e c3 96 3e
       0.21037723 0.28961965 -0.4633172 0.29445976
0000d0 d7 d9 ed be 07 e0 cc be 5f 49 6f be 45 b6 a6 3e
       -0.4645526 -0.4001467 -0.23367833 0.32560936
0000e0 aa 9e 97 3e e6 e8 d0 be 88 17 5c 3e f8 61 b1 3e
       0.2961324 -0.40802687 0.21493351 0.34645057
0000f0 33 b6 cd be 69 2c 0d 3d 89 8d fc 3e eb a8 ee 3e
       -0.4017807 0.03446618 0.49326733 0.4661325
000100 b1 33 c8 3e 97 40 e1 be b6 8b dc 3e 43 df 84 3b
       0.39101937 -0.4399459 0.4307534 0.004054935
000110 cf aa e2 3e 2e 11 f3 bd d0 2b 57 be cd 69 8c 3e
       0.44270942 -0.11868511 -0.21012807 0.2742447
000120 1e 96 8b 3c 79 4d c3 be 7f 5f d5 bc b2 0a 28 3e
       0.017039355 -0.38145044 -0.026046513 0.1641033
000130 ad 1f 7e bd 7d ea 97 be c3 00 6d be 2c 1f 37 bd
       -0.062041927 -0.29671088 -0.23144822 -0.044707462
000140 52 b5 0a be 3f 52 fa 3e 81 88 af be b0 d4 84 3e
       -0.1354573 0.48890874 -0.34283832 0.25943518
000150 3f 57 ba be 21 5d f9 bd d1 5a 90 be 7b ce 26 3d
       -0.36394688 -0.12175966 -0.28194287 0.04072426
000160 b9 ce e6 be 7b 62 8a 3e bd c8 f7 bd 64 e6 91 3e
       -0.45079592 0.2702826 -0.12098835 0.28496087
000170 37 41 fb 3c d8 c3 9b be 33 2a f1 3e c1 70 f1 be
       0.030670745 -0.30422854 0.47102508 -0.47156337
000180 88 ca a5 be 91 66 83 be 80 bc d0 3e 8b 06 73 be
       -0.32381082 -0.2566419 0.40768814 -0.23732965
000190 98 92 83 3e 0b ae de 3e d5 f3 c0 3e 8b 2b 1e 3e
       0.2569778 0.4349216 0.3768603 0.15446298
0001a0 37 d0 88 3e f3 a9 cd 3e 7c 85 9a be bf 8c b6 3e
       0.26721355 0.40168723 -0.30179965 0.35654256
0001b0 44 87 f5 be 0f e1 8b be 19 6a cc bb 46 c0 11 be
       -0.47954762 -0.27320144 -0.0062382338 -0.14233503
0001c0 cf 00 c8 bd 38 55 76 3e 39 a3 14 3d 9a f0 ff 3d
       -0.09765779 0.24055946 0.036288474 0.12497063
0001d0 e5 45 95 3c 1a 5b 43 be 79 15 e8 3e 13 6f 69 3e
       0.018221805 -0.19077721 0.45328882 0.22796278
0001e0 f7 9e 6a be 76 b0 d6 be ee 74 d9 bd fd f4 94 be
       -0.22912203 -0.41931504 -0.10618006 -0.2909316
0001f0 43 09 9f be d9 df c9 be 53 ab d8 3e 13 b7 72 be
       -0.31061754 -0.39428595 0.4231821 -0.2370265
000200 17 3b 88 b9 66 12 c4 be 4b 25 ed 3e b6 91 b2 be
       -0.00025983967 -0.38295287 0.46317515 -0.34876794
000210 80 5e a8 bd 5f 2d fe be 82 22 87 3e 1c fa 67 3e
       -0.082211494 -0.4964399 0.26393515 0.22654003
000220 6e f9 eb 3d 9d 78 bd 3e 5a 9d f0 be 0b 8d 34 3e
       0.11522184 0.37006083 -0.4699505 0.17631929
000230 5f b9 0a 3e 05 01 9d be 0d c2 ae 3e 78 4b d5 be
       0.13547276 -0.3066484 0.34132424 -0.4165914
000240 d4 0c f1 3e e1 f5 1f 3e 86 ba c3 3e 7d 4c 7a be
       0.470801 0.15621139 0.38228244 -0.2444324
000250 36 4c f9 3e 3a 91 93 be 24 17 cc bd 0b 9b aa be
       0.48690957 -0.28821737 -0.09965351 -0.33321413
000260 e8 42 bb 3e 4e 07 4c be cf e8 e6 3e 24 59 be 3c
       0.36574483 -0.19924662 0.45099494 0.023235865
000270 d7 20 d5 3e 9b 64 f4 3d 92 a2 2c be 58 96 d7 3e
       0.41626617 0.119332515 -0.1685889 0.4210689
000280 b2 6d c3 3e bb 19 e4 bc d9 82 fe bd be 36 a3 3e
       0.38169628 -0.0278443 -0.12427301 0.31877702
000290 ed d0 91 be 82 a0 30 3e cd 57 22 bd 18 60 65 3e
       -0.2847971 0.17248729 -0.039634515 0.22399938
0002a0 10 2e 83 be 78 df b6 be 2d 86 c3 3e f8 f8 e0 be
       -0.2562108 -0.35717368 0.38188305 -0.43939948
0002b0 ee fc 82 3e 15 a8 16 be 19 38 07 3e ee e1 f6 be
       0.25583595 -0.14712556 0.13204993 -0.48219246
0002c0 ec bd 9b bb 61 50 71 3e 80 a5 0a be 02 5c 9d 3c
       -0.004752865 0.23565818 -0.13539696 0.019208912
0002d0 95 79 7a be c7 29 23 3e 43 fc 84 3e 06 21 f1 3c
       -0.24460442 0.15933906 0.2597371 0.029434692
0002e0 34 90 7d 3d b4 47 c5 be d1 f9 8e 3e e8 b7 92 be
       0.0619051 -0.38531268 0.2792497 -0.28655934
0002f0 10 28 b5 be 95 0b c0 bb 9b 79 2c bc ed 10 df be
       -0.35382128 -0.0058607557 -0.01052704 -0.435676
000300 83 6a d7 be d6 ce a6 be e7 03 e8 be b3 2f d1 be
       -0.4207345 -0.32579678 -0.45315477 -0.40856704
000310 cc f1 87 3e 3f 90 8b be ef 80 ed 3e 4d 27 d6 be
       0.26551664 -0.2725849 0.4638743 -0.4182686
000320 cc 3f fa bd 49 81 9e bd ab 09 cc 3e 87 9b 58 3e
       -0.122191995 -0.07739503 0.39851126 0.21153079
000330 5c a8 b1 3d 0e 7c 68 be 01 f6 82 3e 44 68 be be
       0.0867469 -0.22703573 0.2557831 -0.37188923
000340 22 5f bf 3d e6 d3 a0 3e 76 cb 15 3e 2c 06 86 3e
       0.09344317 0.31411666 0.14628395 0.26176584
000350 3f 3e cb bd 7e 69 c7 3e e7 0c 33 3d f3 df 80 3e
       -0.09923982 0.38947672 0.043713477 0.2517086
000360 c2 f4 28 3d 16 4c 83 3d 74 b2 c2 be 94 1c a6 3e
       0.041249044 0.064109966 -0.38026774 0.32443678
000370 39 f8 f7 be 6b 5c 5a be d9 7e 99 3d 74 48 28 3e
       -0.48431566 -0.21324317 0.074948974 0.16433889
000380 fd 6d 86 be 00 81 3f be a6 31 58 be f1 59 fb be
       -0.2625579 -0.18701553 -0.2111269 -0.49092057
000390 d8 3a e8 be 8e 81 0c 3e e9 c3 83 3c 49 3d 00 be
       -0.45357394 0.13721296 0.016084628 -0.12523378
0003a0 fe c8 74 3e 9c fe 33 3e 13 71 d3 be 5c e1 27 bd
       0.23904797 0.17577595 -0.41297206 -0.040986404
0003b0 a8 67 10 3d 42 4b e2 bd ea 86 c9 3e 45 6d a9 be
       0.035255104 -0.110495105 0.39360744 -0.3309118
0003c0 f0 89 72 3e b1 94 8a 3e 10 a1 c4 be 5e df cc be
       0.23685431 0.27066568 -0.3840413 -0.40014166
0003d0 18 b5 87 3e 25 24 80 be 0e f4 bf 3e cc 3a e7 3c
       0.2650535 -0.25027576 0.37490886 0.028226279
0003e0 7d b0 39 bd c2 2b d2 3e d2 4d 02 be 70 e9 6e 3d
       -0.045334328 0.4104901 -0.12724999 0.058328092
0003f0 67 e5 a8 be a1 14 1e bd 52 81 ed 3e 6b 2d e3 3e
       -0.3298752 -0.038593892 0.46387726 0.4437059

fc1.bias f4 [128]
000000 d6 a0 75 bc a8 58 e8 be 6e c0 4d bd 0c b2 a0 3e
       -0.01499196 -0.4538014 -0.050232343 0.3138584
000010 cf c1 a2 3e 32 14 c6 bd e9 a7 93 3e 45 78 49 be
       0.3178849 -0.09671821 0.28839043 -0.19674785
000020 a0 d5 3c 3d 91 92 a6 3e 50 cd ba be a6 00 f4 be
       0.046102166 0.32533696 -0.36484766 -0.47656745
000030 6d e2 b0 3e d3 15 b9 3e ad 6c 69 be 00 03 32 3e
       0.3454775 0.36149463 -0.22795363 0.17383957
000040 de 08 c7 3e 64 3f e6 be 11 49 a9 3e 23 82 53 3e
       0.38873953 -0.44970238 0.33063558 0.20655112
000050 85 f4 9a 3e a9 4a c6 bd 51 42 97 3e 20 0d 04 3e
       0.3026468 -0.09682209 0.29542783 0.12895632
000060 1a d1 72 be 93 bc a4 be 72 a6 36 3d fb 08 25 be
       -0.23712578 -0.3217512 0.04459233 -0.16116707
000070 22 19 75 3e 21 09 09 3e 5b 05 b0 be 6c c6 82 be
       0.23935369 0.13382389 -0.34379086 -0.2554201
000080 03 ec b8 be 85 0b eb 3e 20 ca 83 bd 49 4d 9b bd
       -0.36117563 0.45907226 -0.06435037 -0.075831
000090 b8 8a ba be cd 22 b5 3e 6c 65 23 be b1 8f 3a be
       -0.3643396 0.35378113 -0.15956658 -0.18218876
0000a0 f9 05 cb be 4c 11 c4 3e ed 09 33 3c ec e6 b5 3d
       -0.39652994 0.38294446 0.010927659 0.088819355
0000b0 27 4f c9 3d bf 9a ec 3d aa 10 ef be 66 a1 f0 3e
       0.0982955 0.11552953 -0.466924 0.46998137
0000c0 a6 b1 6c be 3f c1 36 3e db f8 6f be 08 17 5b 3e
       -0.23114643 0.17847155 -0.23434775 0.21395504
0000d0 7c 4d 08 3e 03 e7 d8 3d 63 00 ba bd de fb b7 bc
       0.13310808 0.10590937 -0.09082105 -0.022458967
0000e0 f2 8d 5f be 37 73 bd 3e 8d 30 d7 be 31 b2 7c 3e
       -0.21831492 0.37001964 -0.4202923 0.2467735
0000f0 f3 e6 2a be 74 3c e8 3e 25 1f f7 be 8b 12 45 3e
       -0.16689663 0.45358622 -0.4826595 0.19245355
000100 37 01 a4 be a7 2f 7b be 68 2f 7e be 0d f4 c1 be
       -0.32032177 -0.24529897 -0.24822772 -0.37881508
000110 60 b4 08 3e aa e2 6a 3d 8f 40 8d 3e 1b 4f 60 be
       0.13350058 0.05734507 0.27588317 -0.21905176
000120 06 e7 c4 bd dd f8 ce be 75 cf 69 3e 9d 0b d6 3c
       -0.09614377 -0.40424243 0.22833045 0.026128585
000130 1d a7 5d be 7b 50 0a 3e 43 f7 e2 be 9f 08 e0 3e
       -0.2164578 0.13507263 -0.4432927 0.43756577
000140 b2 f1 60 be bb f9 a7 3e a9 86 c5 be 10 89 cf be
       -0.219672 0.32807717 -0.385793 -0.40534258
000150 1a 3d 14 3c 96 8a 0b 3d 14 03 8a 3e f0 bd d6 3d
       0.009047771 0.034067713 0.26955473 0.104854465
000160 d5 a9 f2 3e 92 61 20 3e 4c b8 b6 bd 69 0f 28 3e
       0.47395197 0.1566222 -0.089218706 0.16412129
000170 c2 7f ed be 61 00 f1 3d c4 0a 63 3c 70 74 c1 be
       -0.46386534 0.117676504 0.013857547 -0.37784147
000180 4b 9a 80 3e 4e 9f 10 be c6 24 ca bc 48 7f ee bb
       0.25117716 -0.1412327 -0.024675738 -0.0072783567
000190 0b 4f 66 bd 40 e9 88 3d 0a 27 ed 3e 1f 5e 7e 3c
       -0.056227725 0.06685114 0.46318847 0.01552537
0001a0 82 68 c3 3c bc 2f 97 be 66 ba a8 bb 16 2e 2b 3e
       0.023853544 -0.29528606 -0.0051491736 0.16716799
0001b0 5d fc 9e 3e f5 bb ed 3e 88 bc a6 3d 74 9f b8 3d
       0.31051913 0.46432462 0.08141428 0.09014788
0001c0 1e ad 33 be 8f 1a ae be f4 02 72 3e 57 4f a9 3d
       -0.17546508 -0.34004638 0.23633939 0.08267086
0001d0 39 21 6d be f2 95 86 3e 1e ff 06 3e bd d6 77 3e
       -0.23157205 0.26286274 0.13183257 0.2420301
0001e0 c0 08 88 bb 41 02 3a 3e 46 04 8f be db bd c0 be
       -0.0041514337 0.18164922 -0.27932948 -0.37644848
0001f0 f4 ea 1a be 9d 98 84 3e e1 8d 12 be 06 2d ae 3e
       -0.1512869 0.25897685 -0.14311935 0.34018725

fc2.weight f4 [64, 128]
000000 8f 73 dd 3c 0b b9 99 bd 50 51 62 bd 37 45 2d 3d
       0.027032642 -0.07505997 -0.055253327 0.042302337
000010 8a d8 8d 3b fa a7 0d 3c bd a5 bb bc dd e2 e9 3c
       0.004328792 0.008646006 -0.022906179 0.02855056
000020 52 31 13 bd 98 25 e5 3c fb f5 75 3d 2b 88 5c 3d
       -0.035935707 0.027972028 0.06004904 0.053840797
000030 bc a8 a9 bc 32 e2 3f 3d 31 1e 37 3c f5 a0 95 bd
       -0.020710342 0.046846576 0.011176632 -0.07306091
000040 86 4b 8d 3d f7 a7 a7 bd 82 4d 65 3d 69 59 00 bd
       0.068991706 -0.081863336 0.05598212 -0.03133527
000050 ce 5b 9d 3d 1a f7 a1 3d 1a a5 a7 3d ed b3 4b bd
       0.07683526 0.07908459 0.081857875 -0.049732137
000060 53 74 4d bd 50 87 13 3c 61 af d7 bb 85 fa a9 bd
       -0.050159764 0.009004429 -0.006582186 -0.08299736
000070 41 35 00 bd 68 35 9b bd 29 64 d6 bc 64 7c 98 3d
       -0.031300787 -0.07578546 -0.026170807 0.07445601
000080 2c 42 91 3d d1 5d 8f 3d 76 d3 f6 3c 52 01 ab bd
       0.070926994 0.07000316 0.03013013 -0.08349861
000090 5a 18 0b bd f4 53 76 3d 2f 1d 8e 3c 69 1f 47 3d
       -0.03395877 0.060138658 0.0173479 0.04861394
0000a0 28 b7 81 3c d4 3f f0 3c 8a 65 ce bd 1b 9c aa bc
       0.015834406 0.02932731 -0.10077961 -0.02082639
0000b0 fc dc d1 3c f7 b0 03 3c b2 06 e3 3b bf 63 9e bc
       0.025618069 0.008037797 0.0069282884 -0.019334672
0000c0 57 41 63 3d c4 11 a2 3c 7e b9 b3 3c 8e 10 47 3d
       0.055482235 0.019783862 0.021939036 0.048599772
0000d0 45 1c ca bb 01 c0 83 3d 12 c9 6c 3c 4a 8b 9f bd
       -0.006167921 0.06433106 0.014452236 -0.07790239
0000e0 59 33 62 3d dd 79 a8 3d 6a 2f 4b 3c 18 dc 93 3d
       0.05522475 0.082263686 0.012401441 0.07219714
0000f0 b6 a9 30 bd e3 4a 9e 3d 63 0a a0 bc 8a 99 89 bd
       -0.0431306 0.07729127 -0.019536203 -0.067187384
000100 e9 66 7a bc a6 5c 62 bd df cf 70 bd 72 64 85 bc
       -0.015283325 -0.055264138 -0.05879199 -0.016283248
000110 0f 48 49 bd a6 f8 92 bd 57 a4 db bc ec d5 60 bb
       -0.049140986 -0.07176332 -0.026811762 -0.0034307195
000120 54 e7 88 3d 1d da a7 3d 8d 11 8c 3c ce ea 79 bd
       0.06684747 0.08195899 0.017098213 -0.061014943
000130 7f 75 08 3d 23 24 ab bd ec 23 18 3d 9d ea ef bc
       0.033315178 -0.08356502 0.037143633 -0.029286677
000140 3f d4 36 bc 64 7e 15 3d 80 2e 0a 39 92 71 28 3d
       -0.011159002 0.03649749 0.00013178028 0.041123934
000150 49 5b 5e bd 49 ab 9f 3d a2 ec b5 3b cf 25 6c 3d
       -0.054286275 0.07796342 0.0055518905 0.057653245
000160 bc 65 9f bd c9 71 b6 3d 9c 80 5e 3d 54 9f f0 3c
       -0.07783076 0.089084215 0.05432187 0.029372849
000170 3f 42 3f 3d 0f a7 a9 3c e9 5f 0e bd 6a 4f 97 bd
       0.046694037 0.020709543 -0.034759436 -0.07388194
000180 89 94 0f 3b f1 a5 88 bc 71 0b 88 3d e2 b8 a4 bc
       0.0021908602 -0.01668069 0.06642807 -0.02010769
000190 e0 fe 8c bd 56 d9 94 bc 73 a4 e8 b9 49 90 ae 3d
       -0.06884551 -0.01817004 -0.00044373012 0.08523614
0001a0 b7 f6 24 3d 1b 5d b7 bc 76 ab a8 bd 26 a3 96 bd
       0.040274348 -0.022383263 -0.082358286 -0.07355337
0001b0 6e db a8 3d 93 6c fe 3c 3c 5e c4 bc 65 d9 43 bc
       0.08244978 0.031057632 -0.023970716 -0.011953686
0001c0 fd 69 97 3d df ce d2 bc 98 89 b4 3d 25 54 14 3d
       0.073932625 -0.02573341 0.088153064 0.03621306
0001d0 7d 32 e7 bb c0 60 70 3c ae f0 64 bc a9 ed 0c bb
       -0.007055579 0.0146715045 -0.013973398 -0.0021503961
0001e0 a2 12 23 3d 9d 0e 62 bd dc 4c 1f bd f2 a6 6d bd
       0.03981269 -0.055189718 -0.03889166 -0.05802054
0001f0 b9 e7 48 bd a2 e5 8e 3d bf f8 b3 3d aa aa a1 3d
       -0.049049113 0.06977393 0.08787679 0.0789388
000200 ef 37 2e 3d 9d 08 27 3b 2a 61 00 3d b7 d0 df 3c
       0.04253381 0.0025487312 0.031342663 0.027321203
000210 a4 d7 93 3d 0c 12 7b 3d df cd a8 bc e4 99 ad bd
       0.072188646 0.061296508 -0.02060598 -0.08476618
000220 21 ee b0 3c 62 8b cf 3c 2b 1f 3c 3c f7 66 9d 3d
       0.021597924 0.025335018 0.01148204 0.076856546
000230 f7 0f 71 3d ed 6a 2e bd 98 42 9b 3d 7f 4e a3 bd
       0.058853116 -0.04258244 0.07581061 -0.07973956
000240 cf f8 94 bb 09 7f 44 bd 65 b4 74 3d f2 2f 97 bc
       -0.004546262 -0.047972713 0.05974235 -0.01845548
000250 c8 d1 22 3d a8 d1 3a 3a a0 5d f7 bc c0 0f 47 3d
       0.039750844 0.0007126578 -0.030196011 0.048599005
000260 c8 3e 92 bd 40 12 76 3d 95 3b 6d bd 7a cb 93 bd
       -0.07140881 0.060076 -0.05791815 -0.072165444
000270 70 90 b3 bd 6e e6 91 3c 85 24 a8 3b f2 9b 30 bd
       -0.08767784 0.017810073 0.0051313066 -0.04311747
000280 7b fb 96 bb 0c 8c 9d bd 63 22 5e bd b3 36 84 ba
       -0.0046076155 -0.076927274 -0.054232012 -0.0010087102
000290 eb db 8b bd 7c ce 46 bd 76 30 9d bc 5b fc bf bc
       -0.068290554 -0.048536763 -0.019188147 -0.023435762
0002a0 f6 3a 86 bb f8 92 53 3d 75 35 19 3d 4d b3 cc 3b
       -0.004096384 0.051653832 0.037404496 0.0062469603
0002b0 95 39 14 bd 5b 58 c3 39 b6 c5 0a 3d 44 da 01 bd
       -0.036187727 0.00037259128 0.033879958 -0.031702295
0002c0 89 38 79 3d 58 31 75 3c 7b 23 c1 bd 47 3e 70 3a
       0.06084493 0.014965378 -0.094305955 0.00091645535
0002d0 ed 7b bd 3b 74 53 7b bd 13 07 68 bc be 86 34 3d
       0.0057825954 -0.061358884 -0.014161843 0.044073813
0002e0 0c a7 20 3d 81 26 a5 3d d0 15 a9 bc 97 25 8d 3d
       0.03922181 0.08063985 -0.020640284 0.06891935
0002f0 3d a0 56 3d c8 1e d8 3c df 47 59 3c 7b 65 2d bd
       0.05239891 0.026381865 0.013261764 -0.042333107
000300 cc aa b1 bd d7 49 61 3d 83 de 4d 3d 04 13 0c 3d
       -0.08675155 0.05500206 0.05026103 0.034197822
000310 1a 80 ce 3c b0 c4 ce 3d 9a ca 6e bd 46 ab 98 bd
       0.025207568 0.10096109 -0.058298685 -0.07454543
000320 13 5b 39 3b 3e 59 52 3d e1 e8 b3 3d a6 66 9f 3d
       0.0028283044 0.05135464 0.087846525 0.077832505
000330 48 88 c4 3c e7 92 0c 3d 3f 6e c4 3d 86 af 1b 3d
       0.023990765 0.034319784 0.0959134 0.03800919
000340 cd 16 ac bc 64 f7 39 bd 02 a9 21 bd 7b 58 c4 3d
       -0.021006966 -0.045401946 -0.03946782 0.09587189
000350 d4 b9 b4 bd 83 61 f5 3c 9c 02 e4 3c 25 d4 5e bb
       -0.088245064 0.029953724 0.027833275 -0.003400096
000360 2e 86 86 bd 2d 82 53 bd b3 d2 00 3c 07 22 23 bd
       -0.065685615 -0.051637817 0.007862735 -0.039827373
000370 ea 60 05 3d cc be 66 bd 3b 43 15 bd 8b a5 61 bb
       0.032563128 -0.0563343 -0.03644107 -0.0034430947
000380 3c 11 4e 3d 6b 4e 99 3d 16 ac 9d 3d dd 84 02 bc
       0.050309405 0.0748566 0.076988384 -0.007966247
000390 21 d3 d1 bd 88 94 10 bd d4 17 e2 3c b2 46 39 3d
       -0.10245348 -0.0352979 0.027599253 0.045233436
0003a0 fb 3a 88 3d 81 fd c4 bd 17 f5 e8 bc d9 41 8c 3d
       0.06651875 -0.096186645 -0.02843718 0.06848497
0003b0 78 ef 6c 3d 70 15 8a bc 00 04 19 3d 68 2d 8c 3d
       0.057845563 -0.016855925 0.03735733 0.06844598
0003c0 1d 16 9c bc cb e7 cc bc b3 e8 06 3c f8 15 e5 bc
       -0.019053513 -0.025012871 0.008234191 -0.027964577
0003d0 d3 ad c7 bd 9b 0e 0e 3d 6e e5 2b 3d 84 6b 46 bd
       -0.09749951 0.034681898 0.041966848 -0.04844238
0003e0 2b 58 01 3d 1a 87 8e bc e9 b5 8b 3d 0a 19 63 bd
       0.031578224 -0.017398406 0.06821806 -0.0554438
0003f0 68 0e b3 3d ae 44 b7 3c be 6a c8 3c 61 ab 0e 3d
       0.08742982 0.022371616 0.024464961 0.03483141

fc2.bias f4 [64]
000000 d8 4a aa bd bb 2f 25 bd 3a 7a c4 bc 46 73 90 3d
       -0.083150566 -0.040328722 -0.023984063 0.07053237
000010 b3 9e 15 3c 7d a0 9f bd 1e a7 43 3d 80 ee f8 bc
       0.009132075 -0.077942826 0.047766797 -0.030387163
000020 75 c9 64 bd 40 98 30 bc 06 3e 87 3d 2b 08 88 3d
       -0.055856187 -0.010778487 0.06603627 0.06642183
000030 22 25 73 bc ea a7 a8 bd ff ae 5b 3d 70 0c 25 bd
       -0.014840396 -0.08235152 0.053633686 -0.040295064
000040 5a 71 cc bc fb ec 90 bd e5 45 86 3d 43 31 9a 3d
       -0.024956394 -0.070764504 0.065563 0.07528927
000050 58 3c 26 bd 17 3a 12 bd f0 bc 90 3d c9 3f 1d 3b
       -0.040584892 -0.03569993 0.07067287 0.0023994318
000060 45 e3 12 bd 72 d6 4d 3d c8 c5 4f bd 2a 69 c9 bc
       -0.035861272 0.05025334 -0.05072573 -0.024586279
000070 33 73 01 3d 0c 90 a6 bd 91 8f 6a bd ab 9e b7 bc
       0.031604003 -0.081329435 -0.05726582 -0.022414526
000080 38 4b 3e 3d a6 87 9e bd 76 9b ea bc 8e a5 47 b9
       0.046458453 -0.07740717 -0.028638583 -0.00019039793
000090 40 de a4 bc 83 b1 be bd c2 32 7f bc bc ed 5d bc
       -0.020125508 -0.093112014 -0.015576066 -0.01354545
0000a0 31 c8 d2 3d 28 e5 e0 bc b5 db a4 bd c7 1f 99 3d
       0.1029209 -0.02745302 -0.08049718 0.07476764
0000b0 2d 55 7f bd 42 6e 35 bd ab 99 a2 3d 8d c4 ef 3c
       -0.06233709 -0.044294603 0.07939466 0.029268527
0000c0 5f 5d 81 bd 4e dd a9 3d 2c 27 bc 3d 77 d9 60 3d
       -0.06316637 0.08294164 0.09187159 0.05489489
0000d0 70 2f 89 bd 43 9c 39 3c 3c 31 56 3d 58 65 08 3d
       -0.06698501 0.01132876 0.052293047 0.033299774
0000e0 fc 0f f2 3a 36 6b 80 3d 0e 26 83 3d 71 c4 6b bd
       0.0018467898 0.06270449 0.06403743 -0.057560388
0000f0 eb 89 9d 3d cc a0 af 3d c5 8f 5a bc 2a fc ff 3c
       0.076923214 0.085755914 -0.013339941 0.03124817

fc3.weight f4 [3, 64]
000000 9d aa e1 bc 53 e8 f7 bd 8c 24 ae 3d ed e5 af 3c
       -0.027547175 -0.12104859 0.085030645 0.021471942
000010 37 f7 94 bd c0 92 b7 bd a5 36 89 bc 48 9a 69 bc
       -0.07273715 -0.08963537 -0.01674969 -0.014257975
000020 a2 10 9b bd 9b e6 1d bd 3f 8d 62 bd 72 f9 85 bd
       -0.07571532 -0.03855 -0.055310484 -0.065417185
000030 00 a9 d3 3c e7 2b a7 bd c3 09 ab bd b1 cc d9 bd
       0.025837421 -0.081626706 -0.08351471 -0.10634745
000040 cb 0f 06 3e 49 5b b0 3d d1 42 d6 bd d7 c2 b9 3c
       0.13091962 0.08611161 -0.10461963 0.022675915
000050 14 b0 d9 bd e5 30 60 3d a9 77 8f 3d 3e 24 33 3d
       -0.10629287 0.05473413 0.07005245 0.043735735
000060 f2 ea 7d 3d 48 86 07 3e 4c e7 8f 3a e5 56 98 3d
       0.06199164 0.13234818 0.0010978966 0.07438449
000070 3f 23 fd 3d e5 aa f3 bd ce 0f 69 bd 9a e3 09 be
       0.12360238 -0.1189783 -0.05689984 -0.1346573
000080 2d 66 c5 bd 4c ac e5 bd ad bd ce 3d c4 9d f6 bd
       -0.09638629 -0.11214504 0.100947715 -0.1204181
000090 9d a6 cc 3c f7 8c e4 bd c8 18 01 3e db b3 ab 3d
       0.024981791 -0.111596994 0.1260711 0.08383914
0000a0 81 01 b2 3d 5f c9 87 bd 4c f8 8c bd e3 34 d5 bd
       0.08691693 -0.06630205 -0.06883296 -0.10410478
0000b0 89 b4 e1 3d 57 c6 03 be 85 7c 65 3d 26 3d 55 3c
       0.110207625 -0.1286863 0.056026954 0.013015067
0000c0 7e 93 85 bb 8a 9e 9a 3d 24 cb bc b8 07 6d df bd
       -0.0040764203 0.0754977 -9.0023765e-05 -0.10909467
0000d0 ad 5f b1 3d 47 07 a4 bd 18 b7 b8 bc 1e 81 2e 3d
       0.08660827 -0.080092005 -0.022548243 0.042603604
0000e0 c2 3a f9 3d 0c a3 c6 bd f4 89 ec bd 8a c1 f5 3d
       0.1216941 -0.096990675 -0.1154975 0.11999805
0000f0 86 56 0d bd fb b1 92 3d 0f 58 04 3e 3f 1b f2 3d
       -0.034506343 0.07162853 0.12924217 0.11821603
000100 2f 33 4a 3d fc 87 6c 3d 05 9c 9d bd a2 d9 e4 bd
       0.04936522 0.057746872 -0.07695774 -0.11174323
000110 d4 85 c5 3d 2e 11 6e bc 47 92 de 3c 82 90 6d bd
       0.09644666 -0.014530463 0.02716936 -0.05799914
000120 08 93 0c bd 8f 27 08 3e ba c3 d0 bd 3b e5 a0 3d
       -0.034319907 0.1329634 -0.10193582 0.07856222
000130 0a 9d ed bc 41 01 99 3d 34 c6 a8 bd 84 af 89 bd
       -0.029005546 0.07470942 -0.08240929 -0.0672293
000140 69 e3 fe bc 1b c3 a7 bd 31 33 db 3d 58 92 93 3c
       -0.031114297 -0.0819151 0.10703123 0.018014118
000150 58 53 64 bc c8 9d 5d 3d 61 d3 d0 bd dd 12 14 3d
       -0.013935886 0.05410555 -0.10196567 0.036150802
000160 d4 49 de bd c0 5e 32 bd 9a 0a 63 bd da bf f7 bd
       -0.10853925 -0.043547392 -0.055430032 -0.1209714
000170 53 c3 e3 bd 64 d2 e3 3d d8 f7 4d bd 4d bb 66 3d
       -0.111212395 0.11124113 -0.05028519 0.056330968
000180 e0 81 c4 bb d1 3e f3 bd 47 87 93 bd 67 e1 ae 3c
       -0.0059969276 -0.11877216 -0.072035365 0.021347715
000190 60 bc c3 bc eb 6d 81 bd 11 b1 00 bd f8 67 18 bb
       -0.023893535 -0.06319793 -0.031418864 -0.002325533
0001a0 d4 ed 09 3d 81 81 26 3c 04 17 ac 3d 2a 1d 5d 3d
       0.033674076 0.010162712 0.084028274 0.05398289
0001b0 a3 d5 5a 3d 76 cf 0a 3d 18 73 85 3d d9 97 19 bb
       0.053426396 0.033889256 0.06516093 -0.0023436456
0001c0 5d fa a9 bd 3c c4 27 3b 34 bb cf 3c 12 5a fd 3d
       -0.08299706 0.0025599143 0.02535782 0.12370695
0001d0 46 95 cb 3d a7 ea 4d 3b fc d6 ef bd 21 63 dd bd
       0.09940581 0.0031420381 -0.11710927 -0.10809923
0001e0 05 19 88 bc 48 dd 80 bd 7c 3e fe 3c c9 31 f5 3b
       -0.016613493 -0.06292206 0.031035654 0.0074827415
0001f0 84 a0 ae bd de 32 d7 3c 8e 24 87 bd e6 0e 51 3d
       -0.0852671 0.026269373 -0.06598769 0.0510396
000200 60 de 8b bd 89 4e 77 bd ee 74 18 3d b6 80 6f 3c
       -0.06829524 -0.06037763 0.037220888 0.014618089
000210 b4 10 fb 3d 9f e6 cc 3b b6 4b b2 3c 08 72 3c bc
       0.12259045 0.006253078 0.021764617 -0.011501797
000220 ee dd cf 3d 47 3d 11 3c d2 34 b8 bd fe 22 57 3d
       0.101497516 0.008864707 -0.0899445 0.052523606
000230 f7 7d bd bd 1e 45 70 bd 3c 56 87 3d 08 ea 4b 3d
       -0.092525415 -0.058659665 0.06608245 0.049783736
000240 93 08 b0 3d 94 ce 7b 3d d8 50 b2 3d 12 30 1a bc
       0.085953854 0.061476305 0.08706826 -0.009410875
000250 61 ac 79 bd 45 35 16 3d 86 e5 4a 3c 29 f5 82 bd
       -0.06095541 0.036671896 0.012383824 -0.06394417
000260 b8 18 00 3d 66 69 26 3d b4 80 b3 3d 70 c8 f9 bc
       0.031273574 0.04062786 0.087647825 -0.030491084
000270 76 e0 86 3d bb 98 f8 3d 31 4c dc 3d 46 fb f5 3d
       0.06585781 0.12138506 0.1075672 0.12010817
000280 2a d6 d0 bc 19 04 45 3d 87 6d ca 3d 34 17 5a bc
       -0.025492746 0.04809961 0.09884172 -0.013311196
000290 f3 97 b6 3d 9a 00 87 3d 74 c1 f6 bc 51 96 4f bd
       0.08915701 0.065919116 -0.030121543 -0.050680462
0002a0 39 0d 40 bd fe f7 29 3d 17 24 ef 3c 6f 63 13 3c
       -0.04688761 0.04149627 0.029192014 0.008995875
0002b0 c1 d7 db bd c7 ed 24 3d ef b7 2d bb da 37 b8 3d
       -0.10734511 0.040265825 -0.0026507338 0.08995028
0002c0 7e b5 f4 bd a4 82 9b bd 33 2a 44 bd 53 f2 f5 3d
       -0.119486794 -0.07593277 -0.047891807 0.1200911
0002d0 42 a1 fb bd 8f b9 f6 3d 91 51 b6 3c 5d 12 01 be
       -0.12286617 0.12047111 0.02225569 -0.12604661
0002e0 11 89 26 3c 58 03 80 3d b5 b8 f2 3d 5e 34 c9 3d
       0.010164515 0.06250638 0.11851636 0.098244414
0002f0 59 af 9f bd b4 45 41 3d 32 58 7d bc cf 0f d2 bd
       -0.07797117 0.047185615 -0.015462922 -0.102569215

fc3.bias f4 [3]
000000 4f 6a ed 3d 62 dc 59 bd 29 93 ef 3d
       0.115925424 -0.05318869 0.116979904
