benchmarking/policy_SA.pt (torch, 39301 bytes, 6 tensors)

fc1.weight f4 [128, 4]
0.1941328 6.1675396 -4.8205447 -6.429415 1.9796511 6.473951 1.5693696 5.7790127
-24.190168 -8.445602 7.384948 11.703884 -1.1902839 -0.7898215 -2.482917 2.2954342
-13.437756 5.2817454 -5.540765 2.4955711 -1.0690155 8.86656 6.9419813 2.0329227
-4.9042997 -6.3635664 13.130598 -5.835657 -1.0796118 -2.3859665 4.1011195 0.50873566
-5.44706 5.315778 -8.62245 -6.782349 0.32562304 9.667024 10.03114 -8.432805
6.1694775 9.695099 -8.083978 2.9291844 8.525057 0.9804981 -3.3348312 3.6841261
2.2765982 0.27908754 12.926877 -3.2289724 -7.2061067 4.064411 8.985306 -6.0277996
-6.3981676 9.379546 -8.531012 -9.543814 8.518321 9.636674 12.218595 1.6658758
-5.6044483 1.0714196 -2.3980994 8.552097 6.324252 -3.2199166 0.7547798 -15.883287
5.9870615 5.8699074 -3.3101997 -7.731664 12.029155 -8.242276 -3.3110404 -7.198142
-4.400458 -8.664769 -1.5160564 11.603781 1.2848798 1.864814 -3.7701457 11.948182
4.529585 0.96521723 5.4354696 8.266262 2.811599 -6.5321236 -0.43474984 6.759135
-0.4076717 -4.519019 -6.5295496 -5.1955624 1.7793027 -11.2279215 0.4268813 8.752987
-3.6143465 7.34453 9.95652 6.7204485 12.96471 1.1607045 4.8945494 -4.936415
-0.09314203 -8.256114 -21.040064 -5.0209036 6.950183 -6.809048 5.8248634 -11.591713
1.8331825 2.256631 -8.782524 -13.282849 1.8432745 13.62826 -6.1028776 5.6957264
4.7549214 9.952105 6.8267965 9.718823 9.479668 -13.56572 -12.057033 2.442473
11.4468975 4.9652233 -8.831388 13.3763 -6.973582 4.55245 -8.931551 -14.327734
-9.419058 1.8094476 -3.192 3.364451 -9.908823 7.888328 1.7990545 -1.760351
-3.7749996 3.8879323 -5.3126283 13.357871 -0.17392755 -1.1646128 -7.974536 7.3492155
-4.827941 4.9550896 -5.094367 4.1566396 2.1591387 -8.243369 -13.504596 -1.725289
-4.5303254 3.80977 -9.322533 -4.838765 -3.8591561 7.2646365 1.4219323 3.4263968
7.0664463 -1.3135197 0.6683186 4.079111 8.907097 -2.462464 -3.6309414 -1.7325604
7.009561 10.105946 21.982391 -14.90743 -5.299855 -14.073718 2.2487745 -0.98059535
8.92978 -1.9750016 -4.6531987 -3.0033674 -18.049175 0.7308117 -3.6399899 0.039970398
-9.420228 13.730174 -2.2269654 1.0234838 -3.569638 9.324931 -11.404249 0.85534537
-10.601609 1.7436348 -9.859666 -7.5774574 -1.8305186 0.2686677 -5.817632 -9.190368
3.7663958 -11.555072 -3.7689981 -10.1062765 17.075174 -3.8171613 -4.847505 -1.7158905
-2.1870093 12.922875 -17.708977 2.2137938 2.3980827 6.128254 -8.175694 8.313453
4.982332 16.518177 -1.2095844 7.615191 -8.966461 11.096665 1.7906957 6.0328197
-5.389554 -15.437693 -4.4083333 -3.5472755 7.0576906 2.6410315 -8.942478 6.489552
-7.9979644 5.50183 11.6591425 15.1931505 -4.988697 -5.489737 5.1995697 11.815452
00000000: c0ca 463e 7c5c c540 e741 9ac0 c5bd cdc0
00000010: 3565 fd3f 9b2a cf40 1ae1 c83f aced b840
00000020: 7785 c1c1 3021 07c1 7e51 ec40 1c43 3b41
00000030: 395b 98bf be31 4abf 1de8 1ec0 65e8 1240
00000040: 0c01 57c1 0f04 a940 f24d b1c0 70b7 1f40
00000050: 80d5 88bf 6edd 0d41 b624 de40 681b 0240
00000060: 06f0 9cc0 56a2 cbc0 ee16 5241 b4bd bac0
00000070: b830 8abf adb3 18c0 5f3c 8340 803c 023f
00000080: 514e aec0 da1a aa40 8ef5 09c1 0109 d9c0
00000090: 10b8 a63e 21ac 1a41 8d7f 2041 c5ec 06c1
000000a0: 5c6c c540 201f 1b41 f957 01c1 c277 3b40
000000b0: a266 0841 ec01 7b3f e06d 55c0 b9c8 6b40
000000c0: c9b3 1140 90e4 8e3e 7dd4 4e41 7ca7 4ec0
000000d0: 6d98 e6c0 a80f 8240 d0c3 0f41 bce3 c0c0
000000e0: cabd ccc0 9f12 1641 067f 08c1 76b3 18c1
000000f0: 0b4b 0841 d12f 1a41 5d7f 4341 6b3b d53f
00000100: a457 b3c0 4724 893f 767a 19c0 64d5 0841
00000110: 4660 ca40 1d13 4ec0 4039 413f f221 7ec1
00000120: 0296 bf40 48d6 bb40 50da 53c0 cb69 f7c0
00000130: 6b77 4041 5de0 03c1 16e8 53c0 2e57 e6c0
00000140: 8dd0 8cc0 e5a2 0ac1 230e c2bf 16a9 3941
00000150: f176 a43f 3ab2 ee3f 114a 71c0 c12b 3f41
00000160: 5cf2 9040 7a18 773f 5eef ad40 9c42 0441
00000170: 3df1 3340 2807 d1c0 8897 debe d54a d840
00000180: 58ba d0be ce9b 90c0 12f2 d0c0 0c42 a6c0
00000190: 31c0 e33f 91a5 33c1 3090 da3e 3c0c 0c41
000001a0: 7451 67c0 6406 eb40 e84d 1f41 ea0d d740
000001b0: 746f 4f41 f791 943f 26a0 9c40 1df7 9dc0
000001c0: 40c1 bebd 0b19 04c1 0d52 a8c1 3eab a0c0
000001d0: e667 de40 b9e3 d9c0 4865 ba40 a877 39c1
000001e0: b9a5 ea3f a46c 1040 3885 0cc1 8d86 54c1
000001f0: 6bf0 eb3f 5a0d 5a41 c64a c3c0 6443 b640
00000200: 5128 9840 d23b 1f41 1e75 da40 4d80 1b41
00000210: b8ac 1741 300d 59c1 9be9 40c1 7a51 1c40
00000220: 7e26 3741 1ce3 9e40 5e4d 0dc1 5305 5641
00000230: 9527 dfc0 acad 9140 a2e7 0ec1 663e 65c1
00000240: 76b4 16c1 fb9b e73f ba49 4cc0 2a53 5740
00000250: 8a8a 1ec1 2f6d fc40 6b47 e63f 2e53 e1bf
00000260: 9899 71c0 e2d3 7840 0d01 aac0 d7b9 5541
00000270: 101a 32be 0812 95bf 662f ffc0 c62c eb40
00000280: 7e7e 9ac0 1890 9e40 0e05 a3c0 3103 8540
00000290: 542f 0a40 d7e4 03c1 d312 58c1 45d6 dcbf
000002a0: 6df8 90c0 46d3 7340 1829 15c1 2ad7 9ac0
000002b0: 6afc 76c0 e777 e840 e101 b63f 164a 5b40
000002c0: 5420 e240 6a21 a8bf ee16 2b3f 1488 8240
000002d0: 7883 0e41 0399 1dc0 5861 68c0 8ac4 ddbf
000002e0: 534e e040 f4b1 2141 f0db af41 d584 6ec1
000002f0: 6a98 a9c0 f32d 61c1 eceb 0f40 4c08 7bbf
00000300: 61e0 0e41 dacc fcbf 01e7 94c0 2c37 40c0
00000310: b664 90c1 7a16 3b3f 98f5 68c0 00b8 233d
00000320: 41b9 16c1 cbae 5b41 9a86 0ec0 8401 833f
00000330: f374 64c0 eb32 1541 ce77 36c1 eaf7 5a3f
00000340: 31a0 29c1 6d2f df3f 31c1 1dc1 887a f2c0
00000350: 6f4e eabf d08e 893e 0b2a bac0 bf0b 13c1
00000360: a10c 7140 93e1 38c1 4437 71c0 4fb3 21c1
00000370: f599 8841 5f4c 74c0 c31e 9bc0 4da2 dbbf
00000380: f6f7 0bc0 19c4 4e41 fcab 8dc1 ccae 0d40
00000390: 307a 1940 a81a c440 a5cf 02c1 e703 0541
000003a0: 446f 9f40 3a25 8441 a9d3 9abf a5af f340
000003b0: a076 0fc1 f18b 3141 8435 e53f dc0c c140
000003c0: 3a77 acc0 ca00 77c1 1111 8dc0 9006 63c0
000003d0: 9ad8 e140 a906 2940 6414 0fc1 69aa cf40
000003e0: 53ef ffc0 fe0e b040 d98b 3a41 2517 7341
000003f0: 68a3 9fc0 edab afc0 e062 a640 170c 3d41

fc1.bias f4 [128]
-5.6013637 -0.6897626 -11.142234 -5.953981 2.8485548 8.03303 -4.319881 -1.570896
11.547794 -9.715226 -9.970846 -2.7288156 0.8263141 -0.13909388 3.072153 -6.641596
-3.2066374 -2.332141 0.55941105 -13.964209 -7.453628 -3.1302614 -9.14104 4.298235
1.1431288 -10.111057 13.511888 -0.15741754 0.6027123 -3.158192 -6.1288204 -7.1206245
-2.0855422 0.057447672 2.3109825 -0.9560679 -0.12950051 19.514347 11.198359 2.3703403
2.823954 3.3014452 -1.1340901 0.7231982 1.0434302 3.758926 -3.50843 2.0466218
-3.6640654 0.024695873 8.316827 -7.8730702 1.0821731 2.4762008 -2.7865462 -9.000762
-6.9378257 6.485932 -5.4547977 0.3876475 6.392968 -0.16228819 -5.1477785 1.5561116
1.7124468 6.204264 -3.6333961 -2.4939575 -0.570076 0.9780644 18.788254 10.176066
-11.57894 -4.4012995 -4.084091 -4.7868657 -15.932 -6.217843 -5.042983 4.907568
9.28765 1.6199912 -7.7717485 -1.7982385 -2.85063 -12.97848 -1.6715909 -5.651093
-4.682328 3.7829962 7.353396 -4.5022526 14.201455 -5.0691853 -13.015123 8.220427
2.230681 -3.5726342 5.3707952 5.647006 -7.5924964 -5.257359 -5.372037 4.505871
3.388389 5.9761653 3.6231012 1.4209431 1.1681975 0.53814185 -3.0590553 10.578941
-6.872708 4.347391 -6.6627574 -5.9399548 -6.3565407 0.8079778 -7.050662 3.5967314
-0.11499238 -1.9031124 4.287849 4.0908275 0.08728838 7.643141 10.956624 0.3938508
00000000: 5f3e b3c0 4894 30bf 9746 32c1 0387 bec0
00000010: b94e 3640 4a87 0041 773c 8ac0 1f13 c9bf
00000020: c4c3 3841 9171 1bc1 9688 1fc1 eaa4 2ec0
00000030: 5289 533f a06e 0ebe 289e 4440 f487 d4c0
00000040: 8c39 4dc0 cc41 15c0 9035 0f3f 666d 5fc1
00000050: 1f84 eec0 3456 48c0 b341 12c1 248b 8940
00000060: 0b52 923f e4c6 21c1 b130 5841 1032 21be
00000070: 5a4b 1a3f d11f 4ac0 4c1f c4c0 28dc e3c0
00000080: 8679 05c0 404e 6b3d 23e7 1340 dec0 74bf
00000090: c89b 04be 621d 9c41 7a2c 3341 a8b3 1740
000000a0: aabb 3440 e14a 5340 dd29 91bf 8423 393f
000000b0: 1f8f 853f 3e92 7040 1e8a 60c0 dafb 0240
000000c0: 0c80 6ac0 004f ca3c b911 0541 31f0 fbc0
000000d0: a684 8a3f 137a 1e40 c656 32c0 1f03 10c1
000000e0: ab02 dec0 c18c cf40 b48d aec0 bc79 c63e
000000f0: 3293 cc40 e02e 26be 9aba a4c0 aa2e c73f
00000100: 7531 db3f 5589 c640 9089 68c0 009d 1fc0
00000110: 80f0 11bf 6e62 7a3f 584e 9641 2bd1 2241
00000120: 5743 39c1 72d7 8cc0 e0b0 82c0 012e 99c0
00000130: 79e9 7ec1 92f8 c6c0 1e60 a1c0 cc0a 9d40
00000140: 379a 1441 df5b cf3f 2ab2 f8c0 ae2c e6bf
00000150: b970 36c0 dba7 4fc1 b1f6 d5bf c1d5 b4c0
00000160: a2d5 95c0 9c1c 7240 054f eb40 7412 90c0
00000170: 2939 6341 c436 a2c0 f23d 50c1 de86 0341
00000180: 7ac3 0e40 0aa6 64c0 8edd ab40 46b4 b440
00000190: bbf5 f2c0 493c a8c0 bae7 abc0 1830 9040
000001a0: 5edb 5840 bf3c bf40 e4e0 6740 77e1 b53f
000001b0: 7f87 953f aac3 093f 90c7 43c0 5843 2941
000001c0: 39ed dbc0 d41d 8b40 4f35 d5c0 1c14 bec0
000001d0: c868 cbc0 a2d7 4e3f 069f e1c0 d930 6640
000001e0: 2081 ebbd 3099 f3bf 0f36 8940 0fe8 8240
000001f0: 40c4 b23d 9c94 f440 554e 2f41 d0a6 c93e

fc2.weight f4 [64, 128]
-4.75966 0.08589864 20.490797 5.7922025 0.9936155 4.86249 8.229819 1.375165
2.5742035 10.877194 -3.5315309 19.882124 -14.390524 -8.016488 -13.4462385 -7.3117585
9.761767 -1.6358443 2.7395706 -0.34551716 2.1997352 -14.520334 7.170539 -8.268347
-18.643818 -0.6928781 3.4575815 3.7336698 5.4554543 -5.0387297 6.046323 5.0687294
-14.874156 -3.1064482 0.26051986 1.7708758 8.988572 1.1055864 -5.4276443 3.3336852
3.1615896 0.8044697 9.682372 -1.9832526 -19.364937 4.120686 13.404231 3.7470393
10.9081335 1.3434923 -7.960905 4.9258537 -15.231268 -7.3478537 -9.125191 17.024977
10.094961 -6.6412563 -16.804287 2.1034253 -16.278585 0.2222507 5.1312985 -1.7194352
10.770812 9.324126 3.3171866 5.752108 -15.498644 -10.145145 2.9224758 8.911474
-1.9410459 -2.993372 -7.799037 8.755734 -2.135158 8.661262 1.0982951 1.6487321
-5.5950365 11.678586 5.2146683 -7.0952873 10.075131 -5.203999 -1.6589471 -10.648382
-9.225274 5.0818496 -6.17119 -5.0749226 -2.423585 0.69340324 -0.40656972 12.462273
4.332221 -4.3783216 7.599372 17.892042 5.0910797 10.10792 -10.277873 3.5389242
-5.519653 11.694479 -6.496725 -1.7189807 -11.73245 -14.209374 7.2080903 -14.188533
-7.4293685 -4.8597794 8.918933 12.57662 5.507063 10.665188 -5.973291 -5.3919177
-5.907022 -1.8719803 0.74196994 7.1078115 1.3407086 12.159321 -12.762471 -4.6784744
-5.261115 15.479338 -6.0985146 -5.60176 4.138465 -2.298119 20.948944 -0.30214226
5.2849503 0.0638026 13.780723 -1.5450243 0.055787683 3.6966305 -0.44314885 6.5889797
-1.7386988 1.1303295 -2.4564576 2.8962698 -0.3861282 -2.6843977 -10.395568 -4.4507093
3.022077 10.302642 9.165112 1.6530743 -14.183611 6.4293118 8.849488 -2.9225707
12.407891 5.3712378 -15.879364 -8.654026 9.442699 -5.384948 1.4168764 0.7389295
7.4126654 3.4401844 -0.88415515 5.312864 4.9170337 10.572401 -0.2572794 1.3997219
-9.939537 -0.8182188 -8.650898 8.66696 4.7604113 -20.39836 19.603268 -1.6141567
3.354393 -0.49300885 7.3921576 -7.4773 1.8516158 -1.0930744 2.7291017 5.0579605
-6.590124 0.20885932 1.1228211 1.5323967 6.7389345 -2.8167114 -4.880909 3.226843
-17.682142 -14.410675 1.7772979 0.5837419 -0.34757102 -12.825461 2.7251997 -1.3301718
16.859268 8.87528 -0.9618598 -2.8794332 11.372588 4.7995825 -14.341452 8.179563
10.990448 9.769496 2.524341 -5.127357 -0.7994709 -3.371863 5.859063 10.112634
-7.659768 2.3033328 -5.118463 3.395698 -3.9238257 7.3241854 4.699131 -6.407698
14.282785 2.6198297 12.212689 4.8261285 9.690117 11.047509 4.009554 0.6790719
-1.9530948 -3.2341967 -11.873729 7.258683 -3.9039187 12.63569 -0.27792835 1.937254
-6.871349 -5.1512218 -1.427629 10.336423 -1.4510144 -12.024007 10.919968 -0.0013180971
00000000: 224f 98c0 a0eb af3d 27ed a341 b959 b940
00000010: 965d 7e3f 8599 9b40 57ad 0341 6805 b03f
00000020: c0bf 2440 fd08 2e41 9a04 62c0 970e 9f41
00000030: 963f 66c1 8943 00c1 cb23 57c1 edf9 e9c0
00000040: 3330 1c41 5963 d1bf 2055 2f40 a0e7 b0be
00000050: 76c8 0c40 4a53 68c1 0e75 e540 264b 04c1
00000060: 8a26 95c1 7660 31bf 0449 5d40 72f4 6e40
00000070: 1593 ae40 463d a1c0 7a7b c140 0833 a240
00000080: 8bfc 6dc1 0cd0 46c0 dc62 853e 0fac e23f
00000090: 31d1 0f41 db83 8d3f 43af adc0 195b 5540
000000a0: 7c57 4a40 baf1 4d3f ffea 1a41 39db fdbf
000000b0: 64eb 9ac1 a9dc 8340 bb77 5641 7ecf 6f40
000000c0: b787 2e41 8ef7 ab3f bcbf fec0 98a0 9d40
000000d0: 46b3 73c1 9e21 ebc0 c800 12c1 2733 8841
000000e0: f684 2141 2c85 d4c0 2e6f 86c1 859e 0640
000000f0: 8b3a 82c1 b095 633e 9933 a440 7416 dcbf
00000100: 3f55 2c41 9f2f 1541 c94c 5440 4511 b840
00000110: 72fa 77c1 8452 22c1 d809 3b40 6695 0e41
00000120: 3174 f8bf 6893 3fc0 b691 f9c0 7d17 0c41
00000130: 6ea6 08c0 8794 0a41 ef94 8c3f a709 d33f
00000140: 8a0a b3c0 7ddb 3a41 90de a640 980c e3c0
00000150: bd33 2141 2987 a6c0 6158 d4bf c65f 2ac1
00000160: b99a 13c1 839e a240 637a c5c0 c465 a2c0
00000170: 041c 1bc0 e082 313f e829 d0be 7865 4741
00000180: 8ea1 8a40 361b 8cc0 0e2e f340 e722 8f41
00000190: 20ea a240 0aba 2141 2b72 24c1 bc7d 6240
000001a0: ffa0 b0c0 961c 3b41 2ce5 cfc0 8f07 dcbf
000001b0: 1db8 3bc1 9959 63c1 ada8 e640 3b04 63c1
000001c0: 63bd edc0 5083 9bc0 f3b3 0e41 d639 4941
000001d0: dc39 b040 9ca4 2a41 3325 bfc0 978a acc0
000001e0: 5306 bdc0 0d9d efbf bef1 3d3f 3173 e340
000001f0: 579c ab3f 948c 4241 1533 4cc1 10b6 95c0
00000200: 0e5b a8c0 5eab 7741 0827 c3c0 9e41 b3c0
00000210: 4e6e 8440 6214 13c0 7097 a741 64b2 9abe
00000220: 501e a940 f0aa 823d d77d 5c41 5bc3 c5bf
00000230: a081 643d 9895 6c40 68e4 e2be ecd8 d240
00000240: af8d debf a3ae 903f 9a36 1dc0 7c5c 3940
00000250: 98b2 c5be 2ccd 2bc0 3f54 26c1 366c 8ec0
00000260: b669 4140 9fd7 2441 4ca4 1241 f097 d33f
00000270: 12f0 62c1 ecbc cd40 8197 0d41 660b 3bc0
00000280: b986 4641 2ee1 ab40 e011 7ec1 e476 0ac1
00000290: 4c15 1741 7e51 acc0 355c b53f 7c2a 3d3f
000002a0: 8e34 ed40 fb2b 5c40 fe57 62bf fb02 aa40
000002b0: 5758 9d40 8e28 2941 20ba 83be 162a b33f
000002c0: 5808 1fc1 ca76 51bf 146a 0ac1 deab 0a41
000002d0: 4a55 9840 d72f a3c1 7ed3 9c41 b09c cebf
000002e0: 60ae 5640 a86b fcbe 8e8c ec40 0b46 efc0
000002f0: bf01 ed3f dde9 8bbf 9aa9 2e40 d0da a140
00000300: 4ce2 d2c0 38df 553e 9ab8 8f3f 9325 c43f
00000310: 5aa5 d740 0045 34c0 6830 9cc0 9984 4e40
00000320: 0775 8dc1 2092 66c1 7f7e e33f 1c70 153f
00000330: d4f4 b1be 1735 4dc1 ac69 2e40 1243 aabf
00000340: c8df 8641 2601 0e41 723c 76bf a248 38c0
00000350: 1ff6 3541 2e96 9940 9676 65c1 7ddf 0241
00000360: e0d8 2f41 db4f 1c41 ce8e 2140 4f13 a4c0
00000370: 20aa 4cbf 9acc 57c0 727d bb40 59cd 2141
00000380: d21c f5c0 ce69 1340 73ca a3c0 1e53 5940
00000390: f61f 7bc0 ba5f ea40 485f 9640 dd0b cdc0
000003a0: 4a86 6441 4aab 2740 2d67 4341 a56f 9a40
000003b0: b80a 1b41 99c2 3041 444e 8040 a8d7 2d3f
000003c0: 03ff f9bf 14fd 4ec0 cbfa 3dc1 2247 e840
000003d0: ced9 79c0 c92b 4a41 a04c 8ebe f0f7 f73f
000003e0: 17e2 dbc0 cfd6 a4c0 8cbc b6bf fd61 2541
000003f0: d7ba b9bf 5562 40c1 30b8 2e41 00c4 acba

fc2.bias f4 [64]
4.1931567 -5.0035048 -3.9079194 -13.291037 -4.8483524 -13.007315 -8.489264 3.572711
-5.007393 1.7335734 1.2279363 1.3772151 8.186333 14.047332 -4.7437453 -3.2622716
-15.381922 -3.7213693 -9.984524 -5.3392615 3.5018492 -10.928596 -0.529665 1.3519995
-3.3296165 -6.0640154 -7.1413374 -3.1364713 -10.877118 6.9016156 3.160305 11.145469
12.0019045 -16.585571 -0.24658322 16.423061 -16.709784 4.69866 -9.9082575 -0.5890002
4.021376 -11.362667 10.744211 -7.9615574 -15.040524 9.503981 -7.0781665 -10.053313
5.2217975 20.924034 -3.6742656 2.9052448 -6.962403 8.471817 12.833511 -2.180982
9.914291 -9.7310295 -0.8566005 -6.8763127 -8.237161 -11.912858 6.8766346 -8.406773
00000000: 572e 8640 b61c a0c0 5a1b 7ac0 16a8 54c1
00000010: b425 9bc0 f61d 50c1 06d4 07c1 4ca7 6440
00000020: 903c a0c0 bce5 dd3f 042d 9d3f 9648 b03f
00000030: 38fb 0241 dfc1 6041 c3cc 97c0 0fc9 50c0
00000040: 5a1c 76c1 ea2a 6ec0 9cc0 1fc1 3bdb aac0
00000050: 4c1e 6040 87db 2ec1 2098 07bf 520e ad3f
00000060: 7018 55c0 6a0c c2c0 d685 e4c0 f2bb 48c0
00000070: ad08 2ec1 09da dc40 7042 4a40 d753 3241
00000080: cd07 4041 40af 84c1 5080 7cbe 6e62 8341
00000090: a3ad 85c1 6c5b 9640 3988 1ec1 b8c8 16bf
000000a0: 1daf 8040 7ccd 35c1 4ae8 2b41 14c5 fec0
000000b0: fca5 70c1 4e10 1841 5780 e2c0 5fda 20c1
000000c0: f718 a740 6c64 a741 2b27 6bc0 88ef 3940
000000d0: 01cc dec0 908c 0741 1056 4d41 3695 0bc0
000000e0: f0a0 1e41 4cb2 1bc1 2c4a 5bbf c10a dcc0
000000f0: 69cb 03c1 119b 3ec1 640d dc40 2482 06c1

fc3.weight f4 [3, 64]
3.251677 -4.9211016 -1.8546547 -4.649444 10.869084 3.177888 -0.11131847 -12.224692
-5.9606347 5.7548056 2.3481655 -1.0118158 7.49876 2.0255044 19.628006 2.1591325
-4.434307 -15.073886 -11.608122 -8.931351 -3.834751 -7.971933 -6.0520945 4.187085
5.8963995 4.8050966 -6.2429075 -5.4687166 -26.141819 -14.727938 8.709186 4.535726
1.0120853 8.390524 -2.0650654 -15.336211 -4.377265 4.7155447 -14.604871 2.6202846
10.275089 3.3205771 10.572643 6.3899302 -7.9780617 3.7921243 0.7314173 -1.1707783
-5.0433145 7.5290775 9.31874 -0.56244993 1.0973352 -4.428872 10.610144 7.439742
2.7097435 6.8115144 -7.434281 -12.543137 3.178899 -9.278174 6.7843924 -7.8153706
0.72334003 2.7005224 8.713724 1.0155078 -8.535553 1.7222266 0.30034363 -7.148584
1.8882403 1.6479384 0.7728193 2.904481 -2.070108 8.9078045 5.834562 -9.794221
-1.8695064 8.27732 0.7715713 -4.207555 2.9572854 11.40189 -0.9323244 3.3288016
9.159162 0.9554552 -5.2575355 4.925721 8.652695 -12.039209 10.110649 0.92375815
-6.294646 0.012610912 7.916491 -3.7341042 2.6414318 3.8958294 8.759928 13.407243
7.817007 -11.862602 6.867421 -13.405815 3.8850951 -8.260488 1.0555831 -7.6800575
8.954292 3.0707278 -1.3028775 4.1488595 14.253105 6.6392813 3.9100373 -0.629755
-5.5289674 1.3233278 5.8846025 11.459598 4.150233 12.142249 9.590832 0.49247503
-0.026711702 4.3655553 5.9133368 -4.483281 0.27137923 -4.1995783 -3.530683 11.075581
7.8427744 7.2294583 1.6701281 1.3036771 18.472513 2.9323282 -2.3515182 -5.1399326
9.094657 0.17287326 -1.1239916 -21.32583 7.5254 -6.0584164 -0.6450273 -18.659534
-0.28165245 -5.939283 -8.601817 5.985239 -9.516481 0.85545194 7.1067824 5.4945583
0.44591975 8.668486 4.1226854 -4.304143 9.643412 0.8349632 3.0564523 -8.9668255
-6.793034 5.8990884 -10.648924 7.6591873 -0.92657983 12.266827 -1.4060596 1.1998621
9.943555 4.641287 3.0017724 2.862176 13.564309 13.252822 -4.574523 9.013942
-7.93281 5.5471926 -3.0378716 -4.713118 -5.416868 -1.2263211 -1.831812 -19.220398
00000000: 7a1b 5040 aa79 9dc0 5365 edbf 3fc8 94c0
00000010: c5e7 2d41 8462 4b40 f0fa e3bd 5798 43c1
00000020: 85bd bec0 5e27 b840 5848 1640 2e83 81bf
00000030: d8f5 ef40 dda1 0140 2806 9d41 3a2f 0a40
00000040: d8e5 8dc0 a32e 71c1 deba 39c1 d0e6 0ec1
00000050: 8f6c 75c0 131a ffc0 c2aa c1c0 9afc 8540
00000060: 4eaf bc40 5ac3 9940 e6c5 c7c0 baff aec0
00000070: 7222 d1c1 a2a5 6bc1 d358 0b41 ab24 9140
00000080: 038c 813f 963f 0641 082a 04c0 1f61 75c1
00000090: 8e12 8cc0 bee5 9640 8dad 69c1 beb2 2740
000000a0: c466 2441 5684 5440 8c29 2941 4f7a cc40
000000b0: 484c ffc0 2ab2 7240 2a3e 3b3f 10dc 95bf
000000c0: d562 a1c0 34ee f040 8f19 1541 b8fc 0fbf
000000d0: 7b75 8c3f 52b9 8dc0 26c3 2941 5e12 ee40
000000e0: 706c 2d40 edf7 d940 a1e5 edc0 b0b0 48c1
000000f0: 1573 4b40 6773 14c1 be19 d940 8417 fac0
00000100: d02c 393f 5cd5 2c40 6a6b 0b41 29fc 813f
00000110: a091 08c1 ec71 dc3f a4c6 993e 33c1 e4c0
00000120: dcb1 f13f a5ef d23f 7cd7 453f 04e3 3940
00000130: a67c 04c0 5e86 0e41 bbb4 ba40 21b5 1cc1
00000140: fc4b efbf e76f 0441 b285 453f 4aa4 86c0
00000150: 2a44 3d40 246e 3641 d0ac 6ebf 160b 5540
00000160: ed8b 1241 b698 743f bb3d a8c0 829f 9d40
00000170: 7071 0a41 9aa0 40c1 38c5 2141 6a7b 6c3f
00000180: bd6d c9c0 009e 4e3c e553 fd40 90fb 6ec0
00000190: 380d 2940 4555 7940 aa28 0c41 1184 5641
000001a0: ec24 fa40 38cd 3dc1 eac1 db40 387e 56c1
000001b0: 66a5 7840 f52a 04c1 591d 873f 08c3 f5c0
000001c0: c844 0f41 ce86 4440 b1c4 a6bf 75c3 8440
000001d0: b80c 6441 fe74 d440 0d3e 7a40 a037 21bf
000001e0: 4ded b0c0 ce62 a93f aa4e bc40 835a 3741
000001f0: b5ce 8440 a746 4241 0c74 1941 b025 fc3e
00000200: 80d2 dabc a1b2 8b40 0e3a bd40 0a77 8fc0
00000210: 38f2 8a3e f262 86c0 b6f6 61c0 9435 3141
00000220: 02f8 fa40 b957 e740 c2c6 d53f e4de a63f
00000230: b5c7 9341 44ab 3b40 467f 16c0 547a a4c0
00000240: b783 1141 b005 313e f5de 8fbf 4d9b aac1
00000250: 14d0 f040 8cde c1c0 8220 25bf ba46 95c1
00000260: c034 90be 9b0e bec0 0ba1 09c1 1487 bf40
00000270: 8243 18c1 e6fe 5a3f c36a e340 6cd3 af40
00000280: 984f e43e 1eb2 0a41 0aed 8340 8abb 89c0
00000290: 6a4b 1a41 26c0 553f ea9c 4340 1e78 0fc1
000002a0: 8960 d9c0 55c5 bc40 fe61 2ac1 1018 f540
000002b0: 5634 6dbf ec44 4441 c3f9 b3bf 1595 993f
000002c0: cd18 1f41 6c85 9440 0a1d 4040 e42d 3740
000002d0: 6907 5941 8f0b 5441 7e62 92c0 1b39 1041
000002e0: 94d9 fdc0 9a82 b140 7d6c 42c0 ddd1 96c0
000002f0: fc56 adc0 17f8 9cbf d178 eabf 60c3 99c1

fc3.bias f4 [3]
12.768309 6.5328045 -9.066548
00000000: fe4a 4c41 bc0c d140 9510 11c1
